models/FNN-6.pt (torch, 79275 bytes, 18 tensors)

weight f4 [16, 3]
00000000: 3d42 62be 95cc 3cbe 040d 98be c2be efbd
00000010: 0dd6 a63e c70a 2f3b 44a9 f8be 9207 0cbe
00000020: 73e4 c4be 1846 c5be 89bc 063f 86e2 0b3b
00000030: e576 863e 5155 98be 2424 0b3f 7cae fc3d
00000040: 0532 e0be 78cb 02bf 457b c4be 0152 09bf
00000050: 3a31 763e c1be c6be ff9f 76be cf6c 2bbe
00000060: 25a0 563e f274 b3bd d654 acbd 51df b93e
00000070: b324 94bd a294 01bf e3dc 88be 8912 a03e
00000080: 88f2 d23e d9b2 ebbe e15d c93e 7628 1bbf
00000090: 6e70 0bbe 9a70 d0be 7763 01be c86e 1ebf
000000a0: c561 bd3e 69e8 863e 4089 db3e 53d0 be3e
000000b0: f6f3 ce3e 6d79 c03e 686f 04be afff 953e
-0.2209558 -0.18437417 -0.2969743 -0.11706306 0.32585183 0.0026709305 -0.4856664 -0.13674763
-0.38455543 -0.3853004 0.5263143 0.0021344735 0.26262584 -0.2975259 0.5435202 0.12337968
-0.43788162 -0.5109172 -0.38375297 -0.53640753 0.24042216 -0.3881741 -0.24084471 -0.16740726
0.20959528 -0.0876254 -0.08414619 0.3630319 -0.07233562 -0.5061742 -0.26731023 0.3126414
0.41200662 -0.46034887 0.39329436 -0.60608613 -0.13617107 -0.40710908 -0.12635599 -0.6188779
0.36988655 0.2634919 0.4287815 0.37268314 0.40420502 0.3759264 -0.12933123 0.29296634

bias f4 [16]
00000000: be83 413e 9e1b ac3e c934 0ebf 0332 153f
00000010: 6e5c e53e 359a b3bd 30b6 813e 8bd5 abbe
00000020: 06a8 5d3d 02f2 a1be 34a8 a53e fd3d 0a3f
00000030: 65ff 943d 1039 063f e6f3 edbe 840b 113f
0.18897912 0.3361482 -0.55549294 0.58279437 0.4479708 -0.08769647 0.2533431 -0.33561358
0.054115318 -0.3162995 0.3235489 0.54000837 0.07275275 0.5243082 -0.46475142 0.56658196

weight f4 [32, 16]
00000000: 1a39 ef3d b692 4abe 25e2 be3d 7459 5abe
00000010: 60d5 d4bd f518 2abe a6fa a3bd 1fd4 463e
00000020: 25b6 ce3c be1c 583e 31e6 45be 1b10 5c3e
00000030: 4c3e 8e3d 3776 473d 5dee 30bd e18f 32be
00000040: 810e bd3c 1e5c 5a3d 8a33 4bbe 8bfa d4bd
00000050: e7df 1a3e 353d 77be bd31 0ebe d163 18be
00000060: 6701 713e ba6e 03be b7b4 4a3e e2c7 4bbe
00000070: c012 6f3d e4ed c83c 3cce 303c 1925 dc3d
00000080: 58e8 f5bd 40bb 78bc 2461 2fbe ba77 6cbe
00000090: 4690 21be 6cba a2bd 20e2 473c 564a 55be
000000a0: 88f3 2d3d 1c63 263e 7a8c 1fbe ac75 d5bd
000000b0: 8c0d 7f3e 0823 3bbd c018 4a3d 10ad 78bd
000000c0: 9f0a 28bd 9eaa 123e 1e3c 1c3d 3809 53be
000000d0: f0fd 903e b186 5d3e f21e 43be 8b3b e73d
000000e0: 2a21 65be 468e 823b 4b5d 823e bc6f 60be
000000f0: 086c 1a3e 9b4b 723d 31ca 98bd a4c2 ce3d
00000100: 73cd 023d dbd0 b6bd ef6e f3bd c9e2 103e
00000110: 0feb 833e 0009 34be e79e 01be e392 a23d
00000120: cb9f 3bbd 3e2a 13be efe4 19be e0e3 103c
00000130: 8623 79be 8988 51be ec46 583e 4a2e 5d3e
00000140: 46de a6bc 8be7 683e f7a9 633e 3a32 283e
00000150: f64e 9c3d 1904 28bd 0d04 7f3e 4260 24be
00000160: c9a9 503e 1061 1d3e ca06 3e3e e1fa f63d
00000170: 72b0 883c 2872 3dbe 3ef5 c0bc fe47 1abe
00000180: 0cb9 18be 96e0 813e ecdf ccbd bf4e 263e
00000190: 9118 383d 00a3 263e 6b28 53be 7526 003e
000001a0: d49f 253e 6e79 b3bd d67c 6b3e c26b 663d
000001b0: 3e99 ca3d 7c58 c43d 491d cc3d 8f91 8d3e
000001c0: c262 73be c907 3dbd 2e3a 7bbe 5060 51be
000001d0: 81fa e4bc 2217 043e 040d 09be 72cd 623e
000001e0: 7231 133e fcd8 99bd 687a 1b3d 5858 1e3e
000001f0: d8eb fe3d e75a 113e 7bf2 4c3e 3b56 2fbe
00000200: 653f 8f3d ac3a afbb fbef 803d 49bb 313e
00000210: f43b c03d 37f6 583e 4d1f 7cbd de4b 8a3e
00000220: d8a6 ebbd 7575 e33c 10a8 e23d 3355 81bc
00000230: c81c 873e ed37 623e afba 3dbe 591c 4cbd
00000240: 756d c83c ec6c 693e ed5f 3d3e 18a8 38be
00000250: e659 023e d67c 453e 181e 7cbc 4d44 1a3e
00000260: 81ad 03be 8baf 00be 1cf3 24be 57ec 78be
00000270: 2b4a e3bd 5018 56be afe0 77be 6ea3 923d
00000280: 9e0d 693e f895 3abe 15a7 053d fe49 3fbd
00000290: fbb3 71bd df40 4a3d 024b ed3d 4b8e 373e
000002a0: bd62 15be 6950 a13d 3ede 3abe 6888 3dbe
000002b0: a2c1 163e 87c0 533e cfc2 b63d adde 38bd
000002c0: 97cd 09be 812d a03d 8bb6 913e c18e fc3d
000002d0: a70a 183e 87db a93c 2dbf 673d 4098 c43c
000002e0: 11f3 dfbd e948 3ebe bf4a cf3d 2228 a7bd
000002f0: 06be 35bd b6ca bf3b d845 a8bd 0ce1 53be
00000300: 0997 babd a580 fd3d a8b4 4e3e 5d66 0d3e
00000310: 75bf 62be adee 46bd 3fc4 af3d 54ac 183e
00000320: e9de 393e 432f b83d e4de 2fbd 443c 4fbe
00000330: a452 05bd 30ef 5639 9758 28be c8cb 50bd
00000340: 5929 7cbe d6f5 513e d07f 153d 3280 353e
00000350: b884 653e 8a6f 283e 215c c13d 84e9 923c
00000360: 4688 533e f8ef e4bd 75f2 753e 8e55 50be
00000370: 6578 86bd e36e 273e ee26 903e c67f 97bc
00000380: 747c f13d 804f 4f3d 4a64 963d 9673 863e
00000390: 2dc4 6abe 660e 823e 7629 823e 53a2 c0bd
000003a0: 8298 db3d 109f d93c e3cf 203e 441e 843d
000003b0: 5dd7 48be 7029 b0bd 2bfb 85be 7da0 213e
000003c0: 5d35 85bd 06e6 8cb9 2d0a 4bbe 27fd ba3d
000003d0: a630 bebd 9d08 753e 94f2 6d3e ec8a 673e
000003e0: 34d2 08be 4d29 4fbe 6458 173e bafe 693d
000003f0: 8b76 1ebd 0ba3 8b3e eb9d 5dbd bed7 52be
0.11680813 -0.19782528 0.093204774 -0.21323186 -0.103922606 -0.16611083 -0.08006792 0.19416855
0.025233338 0.21104714 -0.19326092 0.21490519 0.06945476 0.048696723 -0.04319607 -0.17437698
0.023078205 0.053310506 -0.1984388 -0.1039935 0.15124474 -0.24144442 -0.13886161 -0.14881827
0.23535691 -0.12835208 0.197955 -0.19900468 0.05836749 0.024527498 0.010791358 0.10749263
-0.12007207 -0.015181363 -0.171269 -0.23092547 -0.15777692 -0.079457134 0.0121999085 -0.20829138
0.042468578 0.16248745 -0.15580931 -0.10422835 0.24907511 -0.045687705 0.04934001 -0.06071192
-0.041025754 0.14322898 0.03814327 -0.20608985 0.2831874 0.21633412 -0.19054773 0.11290654
-0.22375932 0.0039842455 0.25461802 -0.21917623 0.15080273 0.059154134 -0.0746044 0.100957185
0.031934213 -0.08926555 -0.11886393 0.14149012 0.25765273 -0.17581558 -0.12658273 0.07938173
-0.045806687 -0.14371583 -0.15028737 0.008843392 -0.24329957 -0.2046224 0.21120805 0.21599689
-0.02036966 0.22744577 0.22232805 0.1642541 0.07632248 -0.041019533 0.24903889 -0.16052344
0.20377268 0.15369058 0.18557277 0.1205957 0.016685698 -0.18500578 -0.02355444 -0.15066525
-0.1491434 0.25366658 -0.10003647 0.16240977 0.044945303 0.16273117 -0.20620887 0.1251467
0.16174251 -0.08763395 0.2299684 0.05625511 0.0989251 0.095871896 0.09966523 0.27650115
-0.23768142 -0.046150003 -0.24533913 -0.20446897 -0.02795148 0.1289945 -0.13383871 0.22148684
0.1437433 -0.075120896 0.037958533 0.15463388 0.124473274 0.14194833 0.20014374 -0.17122738
0.069945134 -0.0053475704 0.06295773 0.173566 0.09386435 0.21187674 -0.06155329 0.27011007
-0.11506432 0.027765969 0.11067212 -0.015787696 0.26389146 0.22091646 -0.18528245 -0.049831722
0.024466256 0.22795457 0.18493624 -0.18032873 0.12729606 0.19285902 -0.015388034 0.15065117
-0.12859155 -0.12566964 -0.16108364 -0.24308906 -0.11098131 -0.20907712 -0.24206804 0.07160078
0.22759101 -0.18221271 0.032630045 -0.046701424 -0.059009533 0.049378272 0.11586572 0.17925374
-0.14588447 0.07876665 -0.18248841 -0.18509066 0.14722303 0.20678912 0.089238755 -0.045134235
-0.13457333 0.07821179 0.28459582 0.12331916 0.14847814 0.020734562 0.056578804 0.02399838
-0.10935033 -0.185825 0.101216786 -0.081619516 -0.044370674 0.0058530224 -0.08216447 -0.20691317
-0.09110839 0.123780526 0.20186102 0.1380858 -0.22143348 -0.048567463 0.08582353 0.14909488
0.1815144 0.089933895 -0.042937174 -0.20237833 -0.032549515 0.00020497735 -0.16440044 -0.05097559
-0.24625148 0.20503935 0.036498845 0.17724684 0.2241391 0.16448799 0.094414 0.017933615
0.20657453 -0.11178583 0.24018271 -0.20345137 -0.06565932 0.16350894 0.281547 -0.018493544
0.11791316 0.050612926 0.07343347 0.2626006 -0.22926398 0.2540161 0.25422257 -0.09405961
0.10722448 0.026565105 0.15704302 0.06451085 -0.19613405 -0.086016536 -0.26168188 0.15783878
-0.06504319 -0.00026874262 -0.198281 0.09130316 -0.09286623 0.23929067 0.23237067 0.22611588
-0.13361436 -0.20230599 0.14779812 0.05712769 -0.03868727 0.2727283 -0.05410568 -0.20590112

bias f4 [32]
00000000: 25d9 623d a861 663d f426 50be 29b3 21be
00000010: 040e c33d bdc7 43be 6cb9 2b3d b3ea 0abe
00000020: feae 4c3d 451c 86ba 2c3b 8ebd 36e4 783e
00000030: 41b9 033e b2cf 18bd eef4 5cbd e31a 8d3e
00000040: e429 623e c4bf 0ebd 70bf efbd 8dfd 6a3d
00000050: ec6a 81be 5332 3a3e 75e7 603e eec3 6abe
00000060: 0a71 bdbc 3b7c 7c3d 73c0 6c3e a502 bfbc
00000070: ede3 59bd 8f04 83be 0443 673e 748b b3bc
0.055382866 0.056245476 -0.2032736 -0.15791 0.09524158 -0.19119163 0.04192488 -0.13566093
0.049971573 -0.0010231814 -0.0694488 0.24305806 0.12863638 -0.03730745 -0.05394452 0.27559575
0.22086293 -0.03485085 -0.11706436 0.05737071 -0.25276887 0.1818326 0.21963294 -0.22926304
-0.02312519 0.061641913 0.23120289 -0.02331669 -0.053195883 -0.25589415 0.22584158 -0.021917082

weight f4 [32, 32]
00000000: 44e7 353e e7ed c13d 4910 b5bd b40f 2fbe
00000010: 4190 8a3d 7850 2a3e ca8c 0bbe 2cdd a43c
00000020: 2a4f da3d f471 e7bd f2e8 c8bc fe1e e33d
00000030: a1b8 373b 7985 f5bd 659f 103e a357 493e
00000040: f595 40bd 55d1 a0bc c009 a0bc 97fc d63d
00000050: 7122 143d 13cd 013e 4a90 1f3e 00c1 f63d
00000060: 884d f1bd 8433 c83d dcb9 e7bd fb9b 2d3e
00000070: ed16 b6bd fe3c 363e 4877 f33d 4d08 19be
00000080: 4bef 60bd 1821 20be e616 243e 2f64 553d
00000090: c5ec 29be b20f 0cbe ef4e ba3c 2b13 773d
000000a0: bd98 bebd e587 ea3d 351b 393e 262b 4b3d
000000b0: a030 cebc 0971 06be d9fc 5b3d 4142 323e
000000c0: 055c 493e ae73 cfbc b291 8fbd 8f44 403e
000000d0: 950f 883b ef2a f7bd 5175 edbd e618 7d3d
000000e0: 5d61 6abd dfcd 253d a0b1 ca3d 9575 c5bd
000000f0: e6c6 b0bd d2f6 553c cbc0 a63d 2cbf 833d
00000100: b2fe 33be f38b 6ebc c0de 16be e1aa d6bc
00000110: 31c2 52bc f4d7 4a3d 8a11 75bd c116 cfbc
00000120: 53fb 01be 7237 9f3c 0586 133d eedb 07be
00000130: 4da6 3ebd 06f2 363d 0bd2 113e 3791 71bd
00000140: 2def cf3b 5fa4 fa3c 5a42 60bd 3456 1ebe
00000150: 2d47 123e 3280 2fbe f2f9 4dbd 70fd 1fbd
00000160: b17c 1c3d 73f7 e63d df52 ff3c f295 f13c
00000170: 9c8c 013d e24c 133e 760f 97bd ccbb ef3d
00000180: 5abe 713d b064 a23c 073c 8f3d b2f3 123e
00000190: c8aa 02be c1ea 263e 2ae8 913d 8881 29bd
000001a0: c3ab d13d af95 1cbd 5310 913d 739d bbbd
000001b0: 7b9f d5bb b9ab 7fbd 66fa 083c 204b 173d
000001c0: f57d 3b3e 03d8 82bd 064d 393e bd06 07be
000001d0: 2d58 9cbc 766d 0dbe c349 5f3d 8fa9 f1bd
000001e0: 288c 3e3e e20a 883d 46de f23a a51b 193e
000001f0: 0881 393e 0f08 2fbd 9216 92bc 95f2 26be
00000200: c13b 84bd 6ecd ee3d dec4 c9bd 29fa 92bd
00000210: 9c89 463e 6e84 d33d 4a2e 413d 0709 7abd
00000220: 2fd8 acbd e74d 10be 5a59 caba f458 23be
00000230: 3946 683d ab34 943d ac53 bebd 405c d9bd
00000240: a3f8 82bd 0d44 b23d 21ce 8abd fe47 d3bd
00000250: b4a9 0abe 1618 e5bd 74f0 e13d 54d5 d33c
00000260: 0489 2ebe 2f12 cebc 3133 2d3c 8192 823d
00000270: 32aa e0bd afc8 15be 456c 403d 277d 433b
00000280: c9a2 f83c da34 b93d 3d64 323e 614d 81bd
00000290: 035a e13d ac80 d0bd c0dc debd a3d0 f9bc
000002a0: ade8 b33c 8fcd fd3d 901b 9d3b 77e2 0dbe
000002b0: 6f02 153e d08f cdbd ace9 ac3c c273 a1bd
000002c0: bbc4 463d e140 98bd 350a fdbd 91b3 9d3b
000002d0: 9aa7 46bd fc27 053d c52c 1dbe 203e 37be
000002e0: 6c89 313e 9e13 173d 4aae 333d 437c 2d3e
000002f0: 7dde 683d 30ab acbd cc0c 373e 83b2 dd3d
00000300: 3c02 b1bb 82fc 963d 3bbc e43d 463f 16be
00000310: 63ae 163e d8fa 643d 802a f23b d9d7 17be
00000320: 7ae8 043e f586 f7bd 5621 323d e892 3d3e
00000330: 50d0 aa3d 78c8 4ebd 78e0 9c3d d6e5 46bd
00000340: 361b fd3b 3bc7 5cbd 726b aabd 3a9a 563d
00000350: 9b83 aa3d 8d31 213e 65ea 953d d30e 713b
00000360: e584 ef3d d60a e83d 8230 33bd 7e9c 3d3e
00000370: cc0a a5bd bf0a 29bd 5b7b 363e 23d2 00bd
00000380: 9616 213e 343a 023e 1f77 b63d 1a25 1dbe
00000390: 8c67 31be e357 533e abdc c33d 37e7 5e3c
000003a0: f8b6 443e 2ad2 0f3c f3c3 c2bc 60f3 f43d
000003b0: 7c12 913d 4423 1d3e 554d ddbd b7a4 083d
000003c0: 603b c4bd 10c9 263e 818f 8dbc 9e71 f43d
000003d0: 9f4f 0b3d 019d a13c b9fe 16bd 0e0b 0a3e
000003e0: 759f 9c3c ea93 413e 7e4c 573e ab01 443e
000003f0: 6e74 153e 52dd 343d d2c8 923c fb74 5e3c
0.17764002 0.094692044 -0.08840997 -0.17095834 0.067657955 0.16632259 -0.13627926 0.020124994
0.106596306 -0.11301032 -0.02452514 0.11089896 0.0028033631 -0.119883485 0.14123304 0.19662337
-0.04701801 -0.019631067 -0.0195359 0.104973964 0.03616566 0.12675886 0.15582386 0.120485306
-0.11782366 0.09775451 -0.11314747 0.16954033 -0.088910915 0.17796704 0.118879855 -0.14944573
-0.054915708 -0.15637624 0.1602436 0.052097496 -0.16594227 -0.13677862 0.022742717 0.060321014
-0.09306476 0.11451701 0.18076785 0.049601696 -0.02516967 -0.13129057 0.05370793 0.17408086
0.19664009 -0.025323715 -0.07010211 0.18776153 0.004152248 -0.12068736 -0.11594642 0.061791323
-0.05722176 0.040479537 0.098971605 -0.096415676 -0.08631687 0.013059335 0.08142241 0.064329475
-0.17577627 -0.014559734 -0.1473341 -0.026204528 -0.012863682 0.049522355 -0.05983118 -0.025279405
-0.12693529 0.019435618 0.036016483 -0.1326749 -0.046545316 0.044664405 0.14240281 -0.05897638
0.0063456506 0.030595956 -0.054750778 -0.15462571 0.14284964 -0.17138746 -0.050287195 -0.039060056
0.038204852 0.11277666 0.031167446 0.029490445 0.031628236 0.14384797 -0.07375996 0.11705741
0.059019424 0.019823402 0.06993871 0.14350775 -0.1276046 0.16300489 0.0712436 -0.041383296
0.10237839 -0.038228687 0.07083192 -0.091608904 -0.0065192557 -0.062419627 0.008360481 0.03693688
0.18309768 -0.06388857 0.18095788 -0.13186164 -0.019085014 -0.13811287 0.054513704 -0.11799919
0.18608153 0.06642701 0.0018529377 0.14951952 0.18115628 -0.042732295 -0.017833028 -0.16303475
-0.0645671 0.11660276 -0.098520026 -0.071766205 0.19388431 0.10327993 0.047163285 -0.061043765
-0.08439671 -0.14092217 -0.0015438006 -0.15951902 0.056707595 0.07236608 -0.09293303 -0.106132984
-0.0639508 0.08704386 -0.06777597 -0.10316466 -0.13541299 -0.11186235 0.11032191 0.025858559
-0.17044455 -0.025155155 0.010571287 0.063756 -0.10969962 -0.14627336 0.046978254 0.0029829235
0.03035106 0.09043284 0.1742105 -0.06313587 0.110034965 -0.10180792 -0.108819485 -0.030494994
0.021961534 0.12392723 0.0047945455 -0.1385592 0.1455171 -0.10037196 0.021107517 -0.07883407
0.04852746 -0.0743425 -0.123554625 0.0048126657 -0.04849968 0.032508835 -0.1534911 -0.17894793
0.17337579 0.036883943 0.043867387 0.16941933 0.056852806 -0.08431089 0.17875975 0.10825064
-0.0054018777 0.07372381 0.111687146 -0.14672574 0.14714961 0.055903286 0.0073903203 -0.14828433
0.12979308 -0.12086288 0.043488823 0.18513072 0.08340514 -0.05048415 0.076600015 -0.048559032
0.007724191 -0.05390094 -0.08321275 0.052393176 0.08325883 0.15741558 0.07320098 0.0036782518
0.116952695 0.11330192 -0.043747433 0.18516728 -0.080587 -0.041270014 0.17820494 -0.031450402
0.15731272 0.12717515 0.08909439 -0.15346184 -0.17324656 0.20638995 0.095635734 0.013604931
0.19210422 0.008778134 -0.023775076 0.119604826 0.07083604 0.15345484 -0.108057655 0.03336021
-0.095816374 0.16287637 -0.017280342 0.11935733 0.03401148 0.019728186 -0.036864016 0.1348078
0.019119004 0.18904081 0.21025273 0.19141261 0.14595196 0.04415638 0.017918024 0.013577695

bias f4 [32]
00000000: 2da1 09bd 77b6 363e d2dc d6bc 2792 253e
00000010: fcfa 7b3d bc03 d63d e7a9 ff3d ae04 56bd
00000020: 97a9 e6bd 8e81 b3bc e691 85bd 89a1 9f3d
00000030: cbcd 363d cf73 073e 6e92 043e e153 bcbc
00000040: 5c26 4cbd 968a bfbd eea5 8d3d cc24 f8b9
00000050: 78c1 3d3e 450b 373e d747 7cbd c345 7ebd
00000060: dc1d f1bd affb 89bd dc91 96bc 515f 183d
00000070: 37b3 11be afef 263e 2ba9 1fbe 7bb9 c1bc
-0.033600975 0.17843042 -0.026228342 0.16169034 0.061518654 0.10449931 0.12483578 -0.052250557
-0.112628154 -0.021912362 -0.065219685 0.07794482 0.044629853 0.13227771 0.12946483 -0.022989215
-0.04984127 -0.09352605 0.06916414 -0.00047329662 0.18530834 0.17875393 -0.06159195 -0.06207825
-0.11773273 -0.06737458 -0.018380098 0.037200276 -0.14228521 0.1630237 -0.15591876 -0.023648014

weight f4 [64, 32]
00000000: b360 a1bd 800b 46be 579c fcbd 3e08 573d
00000010: a0ae a6bc 906e 053e 8db3 ecbd 094d babd
00000020: 8c28 9c3c 0c5e 3fbe c170 b7bd a76e 97bd
00000030: 5a8b 33be bdfc e1bd 84ff 2fbe 5c9b 55bd
00000040: 3a14 1f3e 95e1 ed3d e898 203e 7047 1e3e
00000050: 8b96 ed3c abdd 0ebc bdfb 2fbe 15cb 2cbe
00000060: cac6 1bbe 5e80 2dbe a353 5e3d 9fcd 503c
00000070: 8b03 15be 704c 25bd 06fc 963c 1342 3dbe
00000080: 0d87 043e f9c3 e13d 982e 163e 230b bebd
00000090: a99c 603d fa9c 353d 394b 7cbd 663d 28be
000000a0: e7ec 0fbe d0a0 0b3d e795 aabc d561 24be
000000b0: 6433 61bc 34c9 073e 6d26 08be ccbb 313e
000000c0: 8ed8 f73c c430 293b 9218 b5bc a7f6 893c
000000d0: 1201 073e c8fb 243e 3862 6c3d b987 fdbd
000000e0: 6d7e 273c 5a82 ff3d ac6d 313e 4993 903c
000000f0: 81cd 153e dc17 41bd e791 163e 1cf5 f5bd
00000100: eec0 483e 5803 183e 0e44 c2bd 7380 c33d
00000110: a878 063e f14e 07be 2324 5d3e 4b7e 113e
00000120: 0481 d63d 6978 c4bd 8516 1bbe 880d d73d
00000130: c3c0 babd 83a4 8c3d 4cc2 17bc 6286 23bd
00000140: 606c 9ebc f645 99bd 7ded 46be 692e b9bd
00000150: b53d be3d 7b72 b1bc 6979 b33c 0280 d1bd
00000160: de55 b5bc 92ed 8c3d bd5d 023e 6992 c6bc
00000170: 31c0 e13d bd25 b1bd 642b e13d 40a3 81bd
00000180: 21c9 11be 42b2 c83d c739 8cbd 8dea ae3c
00000190: 20e0 bc3d f35c 01be dbae 673d 27dc 63bd
000001a0: 032f a63d 457c 64bd 078c 32be 4f4f 393d
000001b0: 1a47 b03d b759 df3b 0a74 9abc 5063 ffbd
000001c0: 2663 703d cbd9 303d 4cdf 51bd 282b 353d
000001d0: bc54 fabc 9d18 e8bd 3402 5c3c d856 63bd
000001e0: 4bc0 b0bd 29a6 a23b 9032 c3bd 9d90 4cbd
000001f0: 8f53 0a3e 0fbb 0c3e 2e8f 4c3d e535 46bd
00000200: cf55 1cbe 6bd0 17be d37c 68bd 9e73 233e
00000210: e5be 08be 63a6 25be f014 e13c 13c0 223e
00000220: b166 c93b c6bf d8bc d83a f63d f714 08bd
00000230: 9bfc a63d 36fc 09be 6f3d 22be c842 a33b
00000240: 73df 2cbd b35a e5bd 8cfa 5dbc 2a49 d4bd
00000250: 804e 893d 1a29 ddbd 2295 f8bc 0906 d23d
00000260: cc67 9a3c 8533 4cbd 6699 02bd fc5e 7a3b
00000270: ec95 b63d 6726 07bd dc9c 1cbe f618 113d
00000280: 6208 95bd e730 01be 71af a8bd 3230 203d
00000290: 91da 1f3d 1815 06be 0119 bd3d 5beb 3a3d
000002a0: 130b d63c f692 95bd abc8 903d 81a1 013e
000002b0: 26c1 133e 97bf 25bd fb5e 32be 9187 2abe
000002c0: 1241 223e f251 f03d c5d0 9b3d d950 5c3d
000002d0: 9029 cbbd 93c7 b03d 6277 203e b985 883d
000002e0: db2e 17be 2632 1dbe 122c ec3c 1bc9 693d
000002f0: 52c9 babd 53b1 f5bb 07ba aebd 049f 653d
00000300: 8527 2e3d 5fff bc3d 6046 1a3e 87d4 123e
00000310: d679 13be 39af 293c 49d7 0b3e 8f81 533e
00000320: 26ad 813d 7560 db3d 15d3 1cbe 8137 3bbe
00000330: 560e 833d a7e0 af3c ed8a 2f3e a699 debd
00000340: c12a c33d f359 28be 60bc e0bc 116d 333e
00000350: c0de c73d 5def f6bd faf9 1d3d e60e dabd
00000360: 6c9e 303e 6fba fb3d c622 07be fe47 32bd
00000370: 1231 cb3c bf3e 513e 6f3a f5bd ba52 14be
00000380: 02da 0d3e dcd7 bd3d d7db 183d 8706 38bd
00000390: 2b46 92bd 1a5a 12bc 5d2f 75bc 1f76 8f3d
000003a0: f993 333e 950b 9fbb 7812 883d 9e31 cfbd
000003b0: 4f44 ccbd 68d7 36be a264 7bbd b0a8 d4bd
000003c0: dbac 333e a0a8 e93d 0483 0c3e 00c5 e8bd
000003d0: 3aab 7d3d ce81 d53d 07b4 d6bd 3588 0cbe
000003e0: 89ae f83d 3862 2cbd 60df 3e3e cf54 acbc
000003f0: 3c79 33be dc6c 4cbd f770 04be e8bb 403e
-0.07879772 -0.19340324 -0.12334507 0.052498095 -0.02034694 0.13030457 -0.11557684 -0.090967245
0.019062303 -0.1868822 -0.08957053 -0.07394152 -0.17533627 -0.11034534 -0.17187315 -0.052150115
0.1553506 0.11615292 0.15683329 0.15456939 0.029002449 -0.008719842 -0.17185874 -0.16874345
-0.15212551 -0.169435 0.05427898 0.012744336 -0.14552133 -0.0403561 0.018430721 -0.18482237
0.12942143 0.11023707 0.14666212 -0.09279468 0.054836903 0.044339158 -0.061595175 -0.16429672
-0.14055215 0.03408891 -0.020823432 -0.16052945 -0.013745163 0.13260347 -0.13295908 0.17356795
0.030254629 0.002581642 -0.022106443 0.016841246 0.13184002 0.16111672 0.057710856 -0.12379403
0.010223013 0.124760345 0.17326993 0.017648356 0.14629175 -0.047141895 0.14704095 -0.120096415
0.19604847 0.14845026 -0.09485637 0.09545984 0.13131964 -0.13213708 0.21595816 0.14208333
0.104738265 -0.09593279 -0.1514531 0.10500628 -0.09118798 0.068673156 -0.009262633 -0.03992308
-0.019338787 -0.07484047 -0.19426532 -0.09042055 0.092891134 -0.021661034 0.021908479 -0.10229494
-0.022135671 0.068812504 0.12731071 -0.024239736 0.11022986 -0.08649776 0.10994604 -0.063299656
-0.14236881 0.09799625 -0.06846958 0.021352077 0.09222436 -0.12633114 0.05656324 -0.055629876
0.081144355 -0.055782575 -0.17436229 0.04524165 0.086073115 0.0068161148 -0.01885416 -0.12470114
0.058688305 0.043176454 -0.051238343 0.04423061 -0.030557983 -0.113328196 0.01342826 -0.055502743
-0.08630427 0.0049636555 -0.095311284 -0.0499426 0.13508438 0.13743232 0.049941234 -0.04839124
-0.15267108 -0.14825599 -0.056759667 0.15962073 -0.1335407 -0.16176753 0.027475804 0.15893583
0.006146275 -0.026458632 0.12022942 -0.03322312 0.081536494 -0.13475117 -0.15843748 0.004982326
-0.042205285 -0.1119894 -0.013548505 -0.103655174 0.06704426 -0.10798855 -0.03034455 0.10255057
0.018848322 -0.04985382 -0.031884573 0.0038203588 0.08915314 -0.032995608 -0.15294212 0.035424195
-0.072769895 -0.12616311 -0.08236588 0.039108463 0.0390268 -0.13093984 0.09233285 0.04563461
0.026128327 -0.07303421 0.070695244 0.12659265 0.14429149 -0.040465917 -0.17419045 -0.16653277
0.15845135 0.1173438 0.07608179 0.05378804 -0.09920037 0.08631816 0.15670541 0.066661306
-0.14763968 -0.15351161 0.028829608 0.057076555 -0.0912043 -0.0074979453 -0.08531576 0.056059852
0.042518158 0.09228396 0.15065908 0.14338885 -0.14401945 0.010356718 0.13656344 0.20654891
0.063318536 0.10711757 -0.15314896 -0.18282892 0.06399219 0.021469427 0.1714284 -0.1086915
0.09529639 -0.16440563 -0.027433574 0.17522074 0.09759283 -0.12057374 0.038568474 -0.10647373
0.17247933 0.12291419 -0.13196859 -0.04352569 0.024803672 0.20434092 -0.11974036 -0.14484683
0.13852695 0.092696875 0.03731903 -0.0449281 -0.0714229 -0.008932615 -0.014964906 0.07004952
0.17536916 -0.0048536756 0.06644148 -0.101168856 -0.09973966 -0.17855608 -0.061375268 -0.10383737
0.17546408 0.11409116 0.13721853 -0.113657 0.061930872 0.10425149 -0.10483556 -0.13723834
0.12142665 -0.042085856 0.18639898 -0.021036534 -0.17526716 -0.049908504 -0.12933718 0.1882168

bias f4 [64]
00000000: 2b21 1b3e 3253 a4bd c025 623d 743d e5bd
00000010: fd23 9dbd 5444 1ebe be34 003e b1df c9bc
00000020: aa5d 213d 6bbe 0e3e 04db 01be ed73 a93c
00000030: bfca a33a 5bba 02bc 8fe8 ffbc 2135 003e
00000040: 864f 0c3e 4b7b c43d 6439 4e3e cd85 7bbb
00000050: 7793 8dbd d5e0 793d 84c4 18be 88b3 853d
00000060: 0f75 f33d 3de9 cc3d 8767 8d39 9dd0 fb3d
00000070: 8817 683d 3190 023e 5426 45bd f966 06be
00000080: 567f 22be 2463 eb3d 8161 d43c 8366 413d
00000090: 52bf 1bbe b0b2 f1bd 6825 1bbd f711 b13d
000000a0: 7baf b53d f709 533d a166 21be 195a be3d
000000b0: 45ad ccbd 58e0 69bd 05ff d7bd 4cf2 0b3e
000000c0: 3047 e33d 88eb b3bd 5919 893d 7cb7 113e
000000d0: 2921 87bd 88fb 173e 75c8 e0bd 2bde d23d
000000e0: 05dc 42bd 22b8 823d 9a45 943d b078 72bd
000000f0: ff94 1bbd 2063 873d c8c5 0abe bd7d 30be
0.15149371 -0.08023681 0.055211782 -0.11193362 -0.0767288 -0.15455753 0.1252012 -0.024642797
0.039395966 0.13939826 -0.12681204 0.02068516 0.0012496336 -0.007979001 -0.031238822 0.12520267
0.13702211 0.09593829 0.2013908 -0.0038379312 -0.06912892 0.061005432 -0.14918715 0.065283835
0.118875615 0.10005424 0.0002697075 0.12295649 0.056663066 0.12750317 -0.048132256 -0.13125218
-0.15868887 0.11493519 0.0259254 0.047216903 -0.15209702 -0.1180166 -0.03787747 0.08646005
0.08871361 0.051523175 -0.15761806 0.092945285 -0.09993986 -0.057098716 -0.10546688 0.13666648
0.11097562 -0.087851584 0.06694288 0.1423015 -0.06598122 0.14842045 -0.10975734 0.102962814
-0.04757311 0.06382777 0.07239838 -0.059197128 -0.03798389 0.066107035 -0.1355201 -0.17235465

weight f4 [64, 64]
00000000: b95d c43d 42f5 993d 7864 973d 1873 fdbc
00000010: a05e e93c 1713 b03b 0900 c9bd 26e3 133e
00000020: 58c3 ec3d 79db 18bd 6011 c6bc 26fc 1e3e
00000030: 3b17 c4bc bc00 77bd f44b 81bd 5083 053c
00000040: 9934 e23b a8f6 33bc e4d9 603d a21c 463d
00000050: 5e4c d8bd c86d 963d 667f a13d 8299 c33c
00000060: f783 d33c ffd2 dcbd 2738 0f3d 9f2c c7bd
00000070: 2912 df3d 6337 083d 1f70 bbbd 8979 153e
00000080: 60c8 823c 9234 d9bd 7800 1bb9 55b2 23bc
00000090: 40d4 80bb fbc7 d73d 5273 8f3d e13e 823d
000000a0: 4174 073c 372a e5bc 0e15 80bc 98c7 18bd
000000b0: 7369 76bd 0082 dbbc 3042 d2bd 6196 87bd
000000c0: f062 d7bd 388e c63c bbcd 2dbc 8021 f73d
000000d0: 1831 aa3d aa10 c43d 0fd7 083e 2a49 053e
000000e0: 9224 f0bd aadf 123e 22a8 153d 1280 813d
000000f0: 4571 873d 4e5c 10be bc90 d53d 3b34 1bbc
00000100: 438b 52bd 3ece 663d cf35 8ebd 5431 64bd
00000110: 7c5b 4dbd f9d9 9e3d 2e0e a6bd da3c 8e3c
00000120: 169e d6bd 434d 8a3d a0b5 ce3b 812d 8c3d
00000130: 763b 2cbd 1644 6d3d 4838 9a3d 4b49 943d
00000140: fa7d f7bd b5d9 a8bd 8eae 1a3d 36e1 51bc
00000150: 2426 5fbd c36f b3bd 298e b73d b5e3 9abd
00000160: 5c23 aebd 0938 8ebd 85e2 7fbc 504c dc3c
00000170: 878e 013e 5dd2 e93c d3d9 213d b18f ed3d
00000180: 0067 1dbd df10 fc3c 978b 903c 405b f23c
00000190: acaa 6b3d 7c7b c0bc ae5f 9d3c 9db1 94bb
000001a0: 6f51 39bd ddc3 3e3d 175e c03d 7481 2a3d
000001b0: f703 793c 4055 f13d 9e30 d63d df39 8b3c
000001c0: 3bd0 03bd 2687 98bd 93bd dbbc 8a0e 50bd
000001d0: aaa2 e43c 3cba e4bd d058 45bd dea6 853c
000001e0: d0df ebbc 000a df3d 9c64 cb3d da57 893c
000001f0: 751c 9f3d 2914 a03c 5d39 a8bc e1db 9f39
00000200: 5c43 d8bd 9c25 563d 6402 b4bd 328a 963d
00000210: 8294 c23d a8ed f3bc 8887 a03c d899 7f3d
00000220: 428f f63d 5cdf 68bd 20ae e23b e2af d93d
00000230: 12f9 e1bd 845f f5bd 8032 80bb 5692 f2bd
00000240: d464 a03d 08d4 7dbd 80af fd3b e0d3 9c3c
00000250: ec5c 7ebd d0dd f5bd 900d 78bd 5e46 913d
00000260: 2074 993d b4af e73d 4219 a33d 4400 81bd
00000270: c45b cebd dc41 9abd 38e4 5fbd c8af 403d
00000280: b4a1 9ebd 1ef7 90bd 2cb2 c5bd 2e1c debd
00000290: 6ed4 db3d a47b 54bd 98dc 233d 8a18 d73d
000002a0: c4cd 0b3d a0ac aabb 601e 4e3c 40a0 8fbd
000002b0: b8c1 393d 54ea 373d 943a 2d3d 6e01 b6bd
000002c0: 10b4 5c3c 48ca fdbc 0828 cc3d 00e4 f33c
000002d0: a2e2 d2bd 988e 3f3d a0a7 6f3d 3837 cfbd
000002e0: b2b0 f2bd dee5 b63d 0c1c 96bd b8f2 fd3c
000002f0: 9eb1 c63d 48eb 9fbc b83c 08bd 7ca6 f83d
00000300: 9d35 173d b31e a93c 6a24 fa3c 8897 b2bc
00000310: c25c 99bd 1b20 ebbc 7df7 003e 3063 dc3c
00000320: 57da e53c 2967 6dbd 9a1e 843d 4852 d33c
00000330: 9c36 0c3d 6f2c 753d 1693 f8bd a897 a93d
00000340: e956 9fbd da74 a83c 04b0 8a3b c9c7 083d
00000350: 7e7f acbd d44e 0a3c 417e ea3d 5c94 e93d
00000360: 32a3 a83d 85ec 20bc 5649 15bd 3b69 193e
00000370: 780d 8f3d 02d8 a33d d75a d73c c64c d33c
00000380: 9e90 c93d 6de2 193d 6c52 14be 9a2c 943d
00000390: d830 f0bc 223b 9cbd ff0c 82bc cb67 303d
000003a0: 122f 933d 79cc 65bc ca6d cbbd f2dc 3cbd
000003b0: 11b0 72bc fcea 0cbd a01e 8fbb 63ec 553d
000003c0: 7922 86bc 7c55 0fbd a830 db3d cbfd c63d
000003d0: 746b dfbd d75a 253e b249 8abc a82a 21bd
000003e0: e047 aebc b398 8fbd 8419 603c 3472 bbbc
000003f0: a886 8b3d 29ac 693d 7049 b4bd 7d8c 00be
0.09588189 0.07517482 0.0739221 -0.03093867 0.028487504 0.0053733694 -0.0981446 0.14442119
0.11560696 -0.03731868 -0.024178207 0.15525874 -0.023936858 -0.060303435 -0.06313315 0.008148983
0.006903243 -0.0109841 0.054895297 0.04836715 -0.10561441 0.07345158 0.078856274 0.02387691
0.025819762 -0.10782432 0.03496566 -0.09725308 0.10892136 0.033255946 -0.09152245 0.14597143
0.015964687 -0.1060573 -0.00014782127 -0.009991248 -0.003931552 0.1053619 0.070044175 0.063596494
0.008267463 -0.027974231 -0.01563504 -0.037299722 -0.060159158 -0.026795387 -0.102665305 -0.066204794
-0.10516918 0.024237737 -0.010608132 0.120669365 0.08310145 0.09573491 0.13363288 0.13016191
-0.11725725 0.14343134 0.036537297 0.063232556 0.06613401 -0.14097711 0.104279965 -0.009472902
-0.05140234 0.05634903 -0.06943857 -0.055711105 -0.050136074 0.07756419 -0.08108173 0.017363
-0.10479371 0.06753018 0.0063082725 0.06844617 -0.042048894 0.05792626 0.07530266 0.07240542
-0.12084575 -0.08244649 0.037764125 -0.012810042 -0.054479733 -0.08761551 0.08962662 -0.07562963
-0.08502838 -0.069442816 -0.015617971 0.026891857 0.12652026 0.028542692 0.039514374 0.115996726
-0.038428307 0.030769764 0.017644687 0.029584527 0.057535812 -0.023496382 0.019210663 -0.0045377747
-0.045243677 0.04657351 0.09392946 0.041627362 0.015198699 0.11783838 0.10458492 0.016995369
-0.032181006 -0.074476525 -0.026823794 -0.050795116 0.027909596 -0.11168334 -0.0481804 0.01631492
-0.028793246 0.10890579 0.09931299 0.016765524 0.077690996 0.019540863 -0.020535165 0.00030490666
-0.10559723 0.05228196 -0.087895185 0.073505774 0.09500982 -0.02977641 0.019595876 0.062402576
0.12039043 -0.056853637 0.00691773 0.1062925 -0.110338345 -0.11981109 -0.00391227 -0.118443176
0.078317314 -0.061969787 0.0077418685 0.019143999 -0.062100336 -0.12005198 -0.06055981 0.070934996
0.07492852 0.113128096 0.07963802 -0.06298879 -0.10076097 -0.07532093 -0.054661006 0.047042638
-0.07745686 -0.07078384 -0.09653124 -0.108452186 0.10733877 -0.051875725 0.040005296 0.10502727
0.03413178 -0.005208567 0.012580484 -0.07012987 0.04535076 0.044901207 0.042292193 -0.088869914
0.013470665 -0.030980244 0.09968573 0.029771805 -0.10297133 0.046766847 0.05850947 -0.10117954
-0.11850108 0.089305624 -0.07329568 0.030999526 0.097018465 -0.01952137 -0.03326103 0.121411294
0.036916364 0.020644521 0.030534942 -0.021800771 -0.07488395 -0.028701833 0.1259441 0.026902765
0.028058214 -0.05795971 0.06451149 0.02579607 0.034231767 0.05985683 -0.121374294 0.08280879
-0.07780249 0.020563532 0.0042324085 0.033393655 -0.08422755 0.008441646 0.11449862 0.114052504
0.08234252 -0.009822016 -0.03644689 0.14981548 0.06984991 0.080001846 0.026288433 0.025793444
0.09842037 0.037569452 -0.14484566 0.072350696 -0.029320166 -0.07628466 -0.015875338 0.043067735
0.07186712 -0.014025801 -0.0993305 -0.046109147 -0.014812485 -0.034403786 -0.0043676645 0.05222739
-0.01637386 -0.034993634 0.1070264 0.09716376 -0.10909167 0.16147934 -0.016880844 -0.03934732
-0.021274507 -0.07011547 0.013677958 -0.022881605 0.06812793 0.05704895 -0.088030696 -0.12553592

bias f4 [64]
00000000: 662a 28bd e51c 0d3d 3aa7 97bd 3648 de3d
00000010: 8409 a3bd e49e 64bd 5eed c13d c188 d3bd
00000020: 99d0 b5bd e90b f63d 9a76 e53d ab59 933d
00000030: b26b 033e db50 c1bd 801b f1bd 4eef 903d
00000040: 3251 f33d a3b3 78bb 9fe3 193d 0cf6 92bd
00000050: 8b79 bdbb b561 993d d40f d4bd 568d c53d
00000060: 98be a9bd 16a8 913c 3002 c43d 616a 563d
00000070: ed79 5dbd 6b47 b63d 0a37 613d 1fe2 043d
00000080: 567e cabc a324 f13c fa67 ee3d 2e28 c7bd
00000090: a018 8abd 410d 173e 7ea3 233d 0067 acbc
000000a0: 9446 b43d a0fb e43d 68c4 31bd 4d19 c73c
000000b0: 1c58 e13d 121c a4bc 267b 92bd 6ed3 94bd
000000c0: 1943 f2bb af13 d43d d0bb a8bd 9b70 f83d
000000d0: 3504 333d 83c5 8c3d 39a8 f53d 69cf bb3d
000000e0: 2fd6 c63c 4c34 f63d 10a7 143e 205d 173e
000000f0: 8841 ecbd 504a 6f3b bf61 f0bc 515e 47bd
-0.04105606 0.034451384 -0.07404943 0.10853617 -0.07960799 -0.055815592 0.09469102 -0.10328818
-0.088776775 0.120139904 0.11204262 0.07194837 0.12834051 -0.0943925 -0.11772823 0.07076894
0.11880721 -0.0037948869 0.037570592 -0.07175836 -0.0057823113 0.07489339 -0.103545815 0.09646098
-0.08288306 0.017780345 0.0957073 0.052347545 -0.054071356 0.08900341 0.05498413 0.03244221
-0.024718445 0.029436415 0.11640926 -0.097244605 -0.06742978 0.1475115 0.03995084 -0.021045208
0.08802524 0.11180806 -0.0434002 0.024304057 0.11003134 -0.020032916 -0.07152395 -0.072668895
-0.0073932526 0.10355317 -0.082389474 0.12130853 0.043705184 0.0687361 0.119949766 0.0917042
0.024272053 0.120216936 0.14516854 0.14781618 -0.115359366 0.00365128 -0.029343484 -0.04867393

weight f4 [64, 64]
00000000: 2d01 9ebd e522 9ebc 2a6a f0bd 9e95 643c
00000010: f1b5 6f3d 78dc 6e3d 00ba 38bd ad95 2b3b
00000020: 1c4b 183b 2c13 4abd 1f63 fe3c 7af7 ab3d
00000030: f02d 9abd 22e3 cabd a481 423d 3077 01be
00000040: 1dab ee3d 8af1 afbd 9661 613d 9c94 2fbd
00000050: e46f 07bd 9943 60bd a08e 933c d107 a5bd
00000060: 7c93 3e3d 9ca7 00be 7988 883d f981 d93d
00000070: a108 48bd e930 d43d 6782 2a3d 9fdf b0bd
00000080: 2eb6 dcbd 279d 6f3d 6c09 f23c 5ad4 fbbd
00000090: e6c8 173e 4301 ccba c477 4cbd 28aa e43d
000000a0: b534 5a3d b4ce 133d 8838 003d d7dc e13d
000000b0: afab d7bd 8552 92bd b220 863d 7829 663d
000000c0: af27 78bd cb6c c9bd d0a8 343d 0dca 86bd
000000d0: bf20 5ebd bf59 4bbd a622 b43d deb3 eabd
000000e0: 6a0a 7d3d a57a 1dbd 765c d73d cf86 5b3d
000000f0: 7be0 443d f110 853d 5e14 debd be96 093d
00000100: 9dd8 e1b8 47e2 a6bd 00ec 543b 54ff d5bd
00000110: eef1 bd3d c8af d0bc f8c4 593d 086e c2bc
00000120: bc5a 5abd 6aa2 00be 3456 ebbd 286c aa3d
00000130: 43ef 953d 5853 c33d 9691 c33d 52fb 723d
00000140: 811e 9ebd bb75 5b3d 1215 14be 5ea1 c83d
00000150: ec6d 4f3d fe6c fc3c 60a8 443d a626 583c
00000160: f231 9cbd 2d12 81bc 2572 cabc 5e73 88bd
00000170: 90d8 4d3d 17c8 b13b 8d49 9bbd 12f0 d6bd
00000180: 7650 d8bd b438 473d 4d4d 913d b019 85bc
00000190: fc7b 0cbe 25c5 0dbe 1c77 9bbd 408a febb
000001a0: 841e 7ebd 73f6 0cbe 2a6e ce3d ff36 c13d
000001b0: 4e79 3e3c 8307 f2bd 2cbf 68bd 18c7 933c
000001c0: a57d ebbd 70e5 5bbd b075 d6bc e757 433d
000001d0: c42a 36bd db92 e6bd 6a7c d13d 4720 ce3b
000001e0: 26ba dbbd 0633 bdbd e3e9 193d c0f3 5d3c
000001f0: c6df fd3d 7d6f ba3d 3215 e53d 788a 013d
00000200: 5809 d83c 3248 aa3d ea42 f03d d491 a0bd
00000210: da2a e5bd 6eee dc3d 00c6 d0bc 0013 283c
00000220: d68d ddbd 2eff eb3d 1045 2cbd c00d b03c
00000230: 2ce8 d2bd c06e bcbc 6033 4d3d 5071 b63c
00000240: dc56 22bd c035 1c3c a029 573c e0fd f33c
00000250: 708e 00bd 4e2a a63d 7cd6 a43d 14ca e9bd
00000260: 3c50 5b3d e099 403d a4ef d1bd 60b3 0ebc
00000270: f8e5 90bd c0e1 20bd e6a6 d6bd 0063 81bd
00000280: 2013 863d c048 253b 5cc3 81bd 9634 db3d
00000290: 000e 013c 5689 e0bd 1812 94bd e831 d43d
000002a0: 6859 6dbd 3404 ee3d 7068 d6bd 0ca8 463d
000002b0: b026 aa3c 109d 5f3d 88d6 813d 3cdf 15bd
000002c0: 60ff 873d e232 9bbd 6cb4 2f3d 4efa d63d
000002d0: f0a6 453c 98b0 e73c 60dc 61bd fad6 e6bd
000002e0: 70cd aa3d 5edc d8bd d4e4 6b3d 1c25 d1bd
000002f0: 802d a5ba 003f d9bc c0aa f73d 0061 183d
00000300: a8e5 f2bc a4bd 46bd e8e3 c93d 70f0 8c3d
00000310: fa47 85bd 04e0 dd3d 84bb edbd 8083 dc3a
00000320: 7642 e63d a899 d5bc d8b2 f03c 4ac6 b9bd
00000330: f8fd 89bd b061 0dbc 7e6d 833d 54c2 dfbd
00000340: e05f 91bb 78e2 e8bd a062 11bd 1cd3 3d3d
00000350: 7c50 333d 0a18 ad3d e8ae c13d 4050 e4bc
00000360: ce6e dabd f09c afbd 1843 953c f021 e5bc
00000370: 70a7 753c a4b7 8d3d 70a0 d1bd cc84 6ebd
00000380: 0284 f23d 18d1 c5bc 241c 5bbd f4d1 8bbd
00000390: 8003 63bb dc44 bfbd c0a2 3cbd c44d 1b3d
000003a0: e066 fa3c 78cc 303d 18ca f0bc baaa 93bd
000003b0: ba8a debd f444 efbd 68a1 a13c 0e18 d5bd
000003c0: ea5f b83d 1082 4dbd 0090 a3b8 c4a0 00bd
000003d0: a09c d13b 9036 1abc 5424 e2bd 9e17 cabd
000003e0: 9eca fcbd 34bf 903d 9824 b0bd f6b0 f73d
000003f0: b070 893d b88d c53d ae6b eabd e406 afbd
-0.07715068 -0.019303748 -0.11738999 0.013951687 0.058523122 0.058315724 -0.04509926 0.0026181743
0.0023238128 -0.04933469 0.031053124 0.08396812 -0.07528293 -0.099066034 0.047486916 -0.12643123
0.11653731 -0.08590992 0.055024706 -0.042866334 -0.03306569 -0.054751966 0.018012345 -0.080581315
0.04652737 -0.12563938 0.06666655 0.106204934 -0.048836354 0.10360891 0.041628268 -0.08636402
-0.107769355 0.05849948 0.029545508 -0.12296362 0.1482273 -0.0015564341 -0.049918905 0.11165267
0.05327292 0.0360858 0.031303912 0.1102845 -0.10530793 -0.071446456 0.06549205 0.05619189
-0.06058472 -0.09835204 0.044106305 -0.06581507 -0.054230448 -0.049646135 0.08795671 -0.11460088
0.06177751 -0.03844704 0.105156824 0.05359536 0.048065644 0.06497372 -0.108437285 0.033591025
-0.000107691834 -0.08148628 0.00324893 -0.104490906 0.0927466 -0.025474444 0.05316636 -0.023734108
-0.053309187 -0.12561956 -0.11491051 0.083214104 0.07321026 0.09537381 0.09549253 0.05932171
-0.07720662 0.053579073 -0.14461163 0.09796403 0.05064194 0.03081369 0.048012137 0.013192808
-0.07626714 -0.015755737 -0.024712631 -0.066626295 0.05025536 0.005425464 -0.07582388 -0.104950085
-0.10562222 0.04863806 0.07094822 -0.0162476 -0.13719171 -0.13844736 -0.07591078 -0.0077679455
-0.06204082 -0.13765888 0.10079606 0.09434318 0.011625601 -0.11817839 -0.05682294 0.018039271
-0.11498574 -0.053685606 -0.026179165 0.047691252 -0.04447438 -0.11258479 0.10228808 0.006290469
-0.10728864 -0.092382476 0.037576567 0.013546884 0.12396197 0.09103296 0.11185683 0.031626195
0.026371643 0.083145514 0.11731513 -0.078403145 -0.11189814 0.10787664 -0.025485039 0.010258436
-0.10818069 0.11523281 -0.04205805 0.021490932 -0.102981895 -0.023002028 0.050097823 0.022270828
-0.039633617 0.009534299 0.013132483 0.029784143 -0.03138584 0.08113538 0.08048722 -0.114154965
0.053543314 0.047021747 -0.10250786 -0.0087097585 -0.07075113 -0.039277792 -0.10481052 -0.06317711
0.065466166 0.0025220364 -0.0633609 0.10703389 0.007876873 -0.10963695 -0.072300136 0.10361081
-0.057946593 0.116218954 -0.104691386 0.048500106 0.0207704 0.054593146 0.06339747 -0.036589846
0.06640506 -0.075780645 0.042896673 0.104969606 0.012063727 0.028282449 -0.055141807 -0.11271472
0.08339965 -0.10588907 0.057591274 -0.10212156 -0.0012602061 -0.026519299 0.12093115 0.03720188
-0.029650524 -0.0485207 0.09857923 0.06881797 -0.06507869 0.10833743 -0.116080314 0.0016823858
0.11243145 -0.026074246 0.029382154 -0.09071024 -0.06737894 -0.008629248 0.06417368 -0.10925737
-0.004436478 -0.113713205 -0.035494447 0.046343908 0.043777928 0.08451851 0.09457189 -0.027870297
-0.106656656 -0.08574855 0.01822047 -0.027970284 0.0149935335 0.06919792 -0.10235679 -0.058232114
0.11841585 -0.024147555 -0.053493634 -0.06827155 -0.0034639537 -0.09339306 -0.046053648 0.03791596
0.030566633 0.043163747 -0.02939324 -0.07210298 -0.10866304 -0.11683074 0.019730285 -0.10404979
0.09002669 -0.050172865 -7.799268e-05 -0.031403318 0.006396845 -0.009412423 -0.11042085 -0.09867786
-0.12343334 0.07067719 -0.0860073 0.120942995 0.067109466 0.09646171 -0.114463195 -0.08546236

bias f4 [64]
00000000: bf7d 203c 26c7 923d 2ce1 cebd 4cd8 013d
00000010: ebd8 35bd 82e8 ad3d e861 a43c 822f 733d
00000020: e35e 80bd 0a07 0dbe 2ce4 e7bd d80a d4bd
00000030: f6d7 aabd 9e54 1d3c 60ce 3dbc f96e c23d
00000040: 1bc3 41bd be11 14bd b8a4 bfbd a9e6 3e3d
00000050: 16d2 0a3e ab3c 423d 2530 fabc 5e52 adbd
00000060: 96fd e5bc 0abc 8a3d 769e d63d e6c5 27bc
00000070: b41b dbbd 3e66 9cbd 13ff f8bc d70a cabb
00000080: 29d8 c23d e0b6 ccbb 5cd8 30bd 10ce cebd
00000090: d4ef fdbd 23d1 e83d 2c14 9f3c 0984 a0bb
000000a0: 5edd 023e 3f5a df3d f78d 0d3c f05f 0c3e
000000b0: edcc aabb e4b3 c33b c04a d1bd af59 633c
000000c0: 4938 7c3d 58a2 d43d a911 4ebd 4c01 d7bd
000000d0: cd03 193e c814 9e3d 4ca9 bdbd 30f2 8fbc
000000e0: 3999 ae3d 6838 e83d c6d8 813d 04e0 b2bc
000000f0: 0963 b73d 66f9 d13d 718e bf3c 3b67 04bd
0.009795605 0.07166891 -0.10101542 0.031700417 -0.044396322 0.08491613 0.020066217 0.05937148
-0.06268098 -0.13772216 -0.11322817 -0.10353631 -0.083419725 0.009602694 -0.011584848 0.094938226
-0.047305208 -0.036149733 -0.093575895 0.046606693 0.13556704 0.04742114 -0.030540535 -0.08462976
-0.02807502 0.06774147 0.10479443 -0.010240054 -0.10698643 -0.07636689 -0.030395066 -0.006165843
0.095138855 -0.0062473863 -0.043175086 -0.10097897 -0.12399259 0.11368015 0.019418798 -0.0048985523
0.12779757 0.10905885 0.008639804 0.13708472 -0.0052124173 0.0059723724 -0.102193356 0.013876363
0.061577115 0.10382527 -0.05030981 -0.10498294 0.14942856 0.077188075 -0.092608064 -0.017571539
0.08525319 0.11338884 0.063401744 -0.021835335 0.08954436 0.10252647 0.023383351 -0.03232501

weight f4 [32, 64]
00000000: a06d 8abd a2aa 023d e018 1cbc 8c4b e73d
00000010: 0709 143e 42f4 7fbd 41fa b53d bdb6 5e3d
00000020: 53bd 46bd 1c0c a63d 5886 cabd d137 513c
00000030: 6a23 9ebd 36ad 1f3e 2eca b9bd 2cf9 3c3d
00000040: 0aa7 d2bd 9b70 103e 7ed3 1e3d 453a 893d
00000050: fc1f 54bd 2e95 2abd 4ac4 ddbc 00a7 763a
00000060: efba e13d a66e 233d c0c5 aa3d 671f 213d
00000070: e0c8 71bc ae51 883d 4e87 893d 8e77 473d
00000080: 0fc6 683d 8496 a4bd e0ef 0abc acf8 e93d
00000090: c063 1bbc 2f0c b2bc 5ed0 0dbe 1a87 1fbd
000000a0: 553c c6bc d3c3 193e d468 523d e396 d83d
000000b0: 73c8 1d3e bcc1 ce3d 9cac ce3d e201 473c
000000c0: d8da 71bc e283 103e 75e7 4a3c 747d 7abd
000000d0: e6b9 b8bc 8b1a 77bd 11a1 1c3e e0cc 24bd
000000e0: 974f 9cbd 91cf e83d b359 8f3c cab2 d33c
000000f0: c464 56bd 8c1f 02bd f968 373d c5a2 9a3d
00000100: 9a46 cb3d f8f5 e3bc 5057 88bc 500f adbc
00000110: 7e53 e5bd 5eed a6bd 54cd 46bd e605 b9bd
00000120: b233 9bbd 0006 223a c8bd dfbc f80c 15bd
00000130: 00cd b3ba ee44 c43d 8027 aa3d 34b0 a43d
00000140: 407e 6f3d 2819 a83c b043 113d 2ae2 c03d
00000150: 44f8 abbd 20dc 473c 9cb0 e1bd 1078 1fbd
00000160: 6804 47bd 6075 cfbb 5832 4bbd 80b6 81bc
00000170: 20c4 e53d 00c9 47bd 908e 3d3c e2fd 94bd
00000180: 102d ddbc b4ea 85bd 12f2 82bd 7083 0dbd
00000190: b873 0c3d 38ca e03c c099 5abb f0fc 803c
000001a0: 90d5 3ebc 10a3 8dbc 3868 763d b0e7 2dbc
000001b0: c262 b1bd 8ac9 b53d ee70 e93d 50b6 f8bd
000001c0: 807f df3b 92fa e63d 20a8 823c 308d e1bd
000001d0: 0c94 373d 7a5f 99bd 5285 9d3d 547d fabd
000001e0: 1811 de3d a08d 7c3c 4065 a5bd 6842 803c
000001f0: ec85 a2bd bc14 b3bd 428b d03d c037 883c
00000200: 3c0f 07bd ee73 56bc eaa5 a7bd 7648 80bd
00000210: 6aaf b63d e34b e33d e6cf 133e 71ab 323e
00000220: 7ec2 633d f28e 44bc 982e b5bd 8f6a ae3c
00000230: 4cdf 123d d63d bc3c 88aa dc3d 0563 943d
00000240: 7908 d13d 6427 fe3d e3ee b6bd bd9f 003d
00000250: 0125 4f3d 9436 bb3d 5406 41bd c28a 883d
00000260: fa8d 043d 9efb 1f3e 57d3 a2bc 88b0 54bd
00000270: 0006 9139 2188 30bd d980 89bd 1132 40bd
00000280: 10b8 ae3d 48fb ef3d e0d5 39bd 58a9 b53c
00000290: c015 ac3c bd8d c23d dbda 00be 8bb0 0abe
000002a0: 4208 283e 64fd 0d3e b4da 003e feda 823d
000002b0: 7118 933d f142 503d b016 7f3d dc1e 2bbd
000002c0: e605 d53d 71a4 8d3c bd75 95bd 0075 48bc
000002d0: eca6 81ba 72fb 833d c7e8 fd3d 0817 4d3d
000002e0: 307e c73b 7e3f 953d da8e d13d 8c50 f63d
000002f0: 63e9 8a3d 770e 073e c7f3 503d 67b2 14bd
00000300: 5b86 fc3c 1cf8 bdbd 80ea be3c 9436 a93d
00000310: 21ac 11bc 72e9 60bc 2377 b1bd f5cb 8dbd
00000320: f991 553d 4925 5fbd 9c10 f7bd f6bc a53d
00000330: e822 b6bd 20ab 043e c06d 60bb 0788 46bd
00000340: 3849 5e3d a8a9 e33b 00cb 0d3c b47e c0bd
00000350: 96e8 57bd 3ed1 67bd a3de d83d 4025 683b
00000360: 319a 523d ecc5 c9bc 7fe5 723c 050d 7e3c
00000370: 2c60 f83d 11e3 4bbd 2a37 a23c fe86 c0bc
00000380: d135 8a3d eaad f3bd dc06 8ebd 941c cbbd
00000390: 40b4 54bc e863 ccb9 f9e5 8b3d 218b a0bc
000003a0: 1708 2a3d c244 25bd 8f2f 6cbd 88eb 9e3d
000003b0: 1c66 c7bc ce9c a6bc 004f f83d b71f e43d
000003c0: 9a77 bbbd 4eb2 a13d 34c0 fcbd c0ca 0b3b
000003d0: 11f0 3b3d a40f 353c 6cd8 c3bd e4f6 d2bd
000003e0: e607 c53d b57a acbd 2078 1a3d d4eb 18bd
000003f0: c388 32bd 1959 e53d dbd5 da3c f5c3 713d
-0.067591906 0.03190101 -0.009527415 0.11293706 0.14456569 -0.0624888 0.08885623 0.05437349
-0.048520397 0.081077784 -0.09888905 0.012769655 -0.077215984 0.15593418 -0.09071766 0.046136066
-0.102857664 0.14105456 0.038775913 0.06700567 -0.051788315 -0.041646175 -0.027071137 0.000940904
0.11021983 0.039900444 0.08338499 0.03933659 -0.014757365 0.06656204 0.067152604 0.048698
0.05682951 -0.08036521 -0.008480042 0.114243835 -0.0094842315 -0.021734325 -0.13849017 -0.038947202
-0.02419869 0.15016107 0.051369503 0.10575654 0.15408497 0.10095546 0.100915164 0.012146445
-0.014761649 0.1411281 0.012384285 -0.061154798 -0.02254958 -0.060328048 0.15295817 -0.040234447
-0.07632368 0.11367715 0.017498827 0.02584209 -0.05234219 -0.031768367 0.044777844 0.07550577
0.099255756 -0.027827248 -0.016643196 -0.021125466 -0.111975655 -0.08150743 -0.04853566 -0.09034328
-0.075782195 0.00061807036 -0.027312174 -0.03638932 -0.0013717711 0.0958346 0.08308315 0.080414206
0.05847001 0.020519808 0.035464942 0.09418137 -0.08396962 0.012198478 -0.11020014 -0.03893286
-0.048588187 -0.006331131 -0.04960856 -0.015834093 0.112190485 -0.048775673 0.011569634 -0.07274987
-0.026999027 -0.06538907 -0.063938275 -0.034549177 0.034290045 0.027440175 -0.0033355802 0.01574561
-0.011647597 -0.017289668 0.060157984 -0.010614321 -0.08661415 0.08876331 0.11398493 -0.12144148
0.006820619 0.11278261 0.015949309 -0.110132575 0.044818923 -0.07488914 0.076914445 -0.12230936
0.10843104 0.015414625 -0.080759525 0.015656665 -0.079357 -0.08744189 0.10182811 0.016628146
-0.032973513 -0.013089163 -0.081859425 -0.06263821 0.08920176 0.110984586 0.14434776 0.17448212
0.055605404 -0.011996971 -0.08846778 0.021291045 0.035857484 0.022978704 0.10774714 0.07245449
0.10206694 0.12409857 -0.08932283 0.03140234 0.0505724 0.09141269 -0.047125176 0.06667091
0.032361962 0.15623328 -0.019876165 -0.051926166 0.00027661026 -0.043098573 -0.06714029 -0.046922747
0.08531201 0.1171785 -0.045369983 0.022175476 0.021006465 0.09499691 -0.12583487 -0.13543908
0.164094 0.13866192 0.12583429 0.06389426 0.07182396 0.05084509 0.062277496 -0.041777477
0.10401516 0.017290326 -0.072978474 -0.012234926 -0.0009891666 0.06444444 0.123979144 0.050070792
0.006088041 0.07287501 0.10232325 0.12027082 0.06782796 0.13189112 0.051013734 -0.03630295
0.030825784 -0.09275839 0.023305178 0.08262363 -0.008891136 -0.013727533 -0.08665302 -0.06923667
0.052141163 -0.054478917 -0.12063715 0.08092682 -0.088933766 0.12955904 -0.0034245104 -0.04846957
0.054269046 0.006947715 0.008654356 -0.09399167 -0.052712046 -0.056596033 0.105893396 0.0035422593
0.05141658 -0.02463051 0.014825224 0.015506034 0.12127718 -0.049777094 0.019801695 -0.02350187
0.06748546 -0.11898406 -0.06934902 -0.0991756 -0.012982428 -0.00038984348 0.06830973 -0.019597592
0.04151162 -0.040348776 -0.057662543 0.07759768 -0.024340682 -0.020338442 0.12124443 0.111388616
-0.091536716 0.07895337 -0.12341347 0.0021330565 0.045883242 0.011051092 -0.095627636 -0.10300997
0.09620647 -0.08421842 0.037712216 -0.03733428 -0.043587457 0.11198635 0.026713302 0.05902477

bias f4 [32]
00000000: 1a5b 013e 4054 50bd b859 eb3c a8a0 dc3d
00000010: 62a4 cabd d292 153d 40e5 7ebc 9d86 803d
00000020: 135c bb3a f3e3 333d f928 4dbd 0786 9d3c
00000030: ed7d 893d 78fd e03d a4d5 dabd 2c93 b2bd
00000040: f87f a3bd b218 ff3d 40ee 00bd 70b0 3fbc
00000050: 68ac 6c3c 3404 fdbd 31af 0ebc 5206 9d3d
00000060: ef5e 1f3e 66b0 403c 9121 e33d cb6f 073d
00000070: 309a 02bc b892 ed3b b23b 763d 6e77 77bd
0.12632409 -0.050861597 0.028729305 0.1077283 -0.09894635 0.036516972 -0.015557587 0.062756754
0.0014294408 0.04391856 -0.050087903 0.019228948 0.067134716 0.10985845 -0.1068528 -0.08719477
-0.079833925 0.12455882 -0.031477213 -0.011699781 0.014445402 -0.12354317 -0.008708761 0.07667221
0.15563558 0.011760807 0.11090387 0.0330656 -0.0079713315 0.0072501563 0.060115524 -0.06041663
